checkpoint.pt (torch, 317346 bytes, 8 tensors)

enc_mask_token f4 [1, 64]
00000000: 0135 6a3d 82eb 56bd c511 113d 61e1 603d
00000010: 679b 453d 8fa4 64bd 4bc9 5d3d 9ea9 533d
00000020: da3c 00bd 78ec 4d3d 3cd9 6a3d 5e44 fe3c
00000030: dc29 59bd 9908 57bd 4988 603d 7958 54bd
00000040: 4334 6c3d 8534 4dbd 2f6c 64bd cc27 6f3d
00000050: b461 6b3d 3f79 6d3d 2c36 643d b19c 633d
00000060: 14a7 ae3d f784 47bd 6645 6c3d 4104 65bd
00000070: 3856 6a3d d898 ea3c 7c79 5fbd 7bed 683d
00000080: 11a4 593d 60e9 fcbc fd53 49bd ad41 553d
00000090: 1348 39bd f97e 38bd 3023 45bd 5e08 5abd
000000a0: 0923 4ebd 0372 713d 8860 5fbd f2fc 63bd
000000b0: 87bb 6cbd 653e 6a3d 9e6f 773d 7fae 5ebd
000000c0: 7fa4 4cbd c708 42bd 46ab 6a3d 609c 673d
000000d0: 089c 703d b8f8 4ebd 68af 933d dd53 4bbd
000000e0: 2e9a 643d c40f 673d 3d44 46bd f584 723d
000000f0: a356 e2bc af6f 03bd ec96 4ebd 6be2 4b3d
0.057179455 -0.05247069 0.035417337 0.054902438 0.048243906 -0.055820998 0.054147046 0.05167543
-0.031308033 0.050274342 0.057336077 0.03103846 -0.053018436 -0.052498434 0.05481747 -0.051842187
0.05766703 -0.050098915 -0.055767234 0.058387563 0.057466224 0.057976957 0.055715725 0.055569354
0.085279614 -0.04871079 0.05768337 -0.05591226 0.05721113 0.028637335 -0.054559216 0.056867104
0.05313498 -0.030873 -0.049152363 0.052064586 -0.04523475 -0.045042966 -0.04812926 -0.053230636
-0.05032638 0.05894662 -0.05453542 -0.05566115 -0.057796028 0.05718841 0.06040918 -0.05436563
-0.049961563 -0.047371652 0.057292245 0.056545615 0.058742553 -0.050530165 0.072111905 -0.049640525
0.0558111 0.05641152 -0.04840492 0.05920883 -0.027629202 -0.03208893 -0.0504369 0.049776476

encoder.rgcn_layers.0.weights f4 [6, 64, 64]
00000000: 0415 b6bb 8a6c 513c 01d7 4d3b 9b72 543a
00000010: 139d 0abb 019e 83bb efa7 ccbb 3aae f2b9
00000020: 098f 44ba 9a1e 48bb ce72 013c a44f e23a
00000030: 872a 253b e6b3 eb3c 59ab 003a 5af2 6bbb
00000040: e116 85bb 62f7 a83c 2eba c9b9 c2f0 853a
00000050: 74a6 dd3c 019e f63b 4771 c7bb d0c0 f139
00000060: b21b 393b b4be 613b 3569 37ba a537 863a
00000070: cb87 14bc b340 c0bb 245b fa3b 44cd b7b9
00000080: 279d e03b 6cd1 6f3b e1c3 1e3c b4c1 17bc
00000090: 8277 cb3b f69c 6e3a 5086 133a aa72 0f3d
000000a0: 2afe 6a3b 7830 1c3c b391 f5ba 45fc a03b
000000b0: e7f6 683b f0a6 83b6 f3db 8e3b 1469 29ba
000000c0: 480b 11bc cba3 75bb e8d4 09ba 1f0f 54ba
000000d0: b52e 4e3b 6e06 f8bb c270 ceb9 fabf a639
000000e0: a303 ee3b e1c2 3eb9 5a8e 9a39 9038 1bbb
000000f0: b6b4 f639 fa3a a9bb e88e acba 93f1 c43b
00000100: 7d4a abbb ec74 643c 16ab 02bb cc5e 3a39
00000110: 12f8 873b 8b8e 2e3b 8efa 8dbc ebae 8e38
00000120: 36eb 013a 13b3 d63a 286c b3bb 52a1 69b9
00000130: 1b6b 23ba 2e01 e53c c866 29ba ceac 55bc
00000140: 1012 083b 6c77 433b badf 1a3b d072 9c3a
00000150: 4151 1c3c fbfc 93bb 7c71 413b 0990 14ba
00000160: 2402 7dbb e299 f7ba e2ab 0b3a 5c0b e439
00000170: 7a84 a2bc b9a2 1ebc 0967 8b3b df1e 6a3a
00000180: 47bc e7bb 7eaf 15bb af6c ff3b 3c9d 8bbb
00000190: 2735 fe39 469f f139 1e2c 02bc 48fe d03c
000001a0: d0be a8ba ae36 5fbb 98f9 9cbb 53f7 82bb
000001b0: 1d88 23bb 9fa4 93ba 1095 62bb d0ff 4b3a
000001c0: 7bbd cdbc 93f9 c9bb f73b 163a de3f edba
000001d0: 3e29 cdba c3e3 adbb b929 16b9 ce19 1db9
000001e0: e0b3 cbbb 5955 7a3a 18d4 aeb9 5147 fbbb
000001f0: 3cb4 94b9 ea1f 3d3b b827 16bc 29d0 80bb
00000200: 8193 b23a 5b24 cc3b 57e0 013b 962d eab9
00000210: e3f7 feba 0f35 45bb fcf3 dcb9 531f 8cb9
00000220: f9e0 0dba 30e5 93ba afee b93b 0a04 91b9
00000230: 6bab 383a 489f 563c 5531 3a3a d948 a5ba
00000240: 79b5 11bb 510b 3b3c 1443 a0ba 9014 14ba
00000250: dc56 273c 4105 943b ee86 1bbb 2069 9239
00000260: 9b33 233b 12aa da3a 1bc4 d5b9 ffeb 38b9
00000270: 5204 f6b9 faef ce38 8b0d ef3a 418e 82ba
00000280: 923c a73b 7457 083b 25fa ba3b 8c00 84bb
00000290: d0f4 6d3b 18a5 3e39 1fd7 753a abfa 303c
000002a0: 513a b53a dc17 7c3b d70f 7c3a 71a0 2d3b
000002b0: aa88 903b 339b 9b39 6df0 393b ff9d 32ba
000002c0: 33bd 1fba b9fc 873a 4e03 86ba 7645 603a
000002d0: 6617 a53a 6828 0eb8 b497 26ba 4fd2 aab8
000002e0: 7c3c 923b 089a 8ab9 cf50 1539 0971 883a
000002f0: ddc0 3f3a 2c06 50bb 6fa4 053b 1e2e 7a3b
00000300: cdf6 edbc d347 c33c cf1a ca3b 53a0 bbba
00000310: 37f4 5c3c 8560 93bb d340 8fbc ddbe 9aba
00000320: 71a4 1d3a a679 89bb db58 0f3c de0b f439
00000330: 2638 d3bb b5ca 433d 01a2 733a d1d2 1cbd
00000340: e14b 63bb 0642 153d 2554 41bb 506d 63bb
00000350: cf76 363d a475 db3b 13f5 18bb 39ff 9e3a
00000360: 9385 703b 8056 613b 108e 86ba d3be 6bba
00000370: a340 1abd f875 0dbd 0cc4 213c 74dd 44bb
00000380: 23f7 113c 5938 e03b 4396 0c3d 7ec7 c0bb
00000390: d0d2 883c 9aae b43a 1dd6 16bc 4550 ad3c
000003a0: 6dba a83c bf2b 203c 2661 02bc d138 d73b
000003b0: ffbf 8d3b 184d f43a 61ab 883b ae06 4fbb
000003c0: beb2 71bc 5540 e8bc 3d2f b1ba c147 4abc
000003d0: ece3 2b3b 5e62 9cbc b28d ebb9 60d5 5a3a
000003e0: a47d eb3b 7bfb 323a b8c1 b839 be78 b7bc
000003f0: 3965 513a 75ec 95bb 5cc4 b3bc a4a5 353c
-0.0055567045 0.012782225 0.003140867 0.0008104236 -0.0021150752 -0.0040166383 -0.006245605 -0.00046287646
-0.00074981205 -0.0030535818 0.007900907 0.0017266166 0.002520235 0.028772306 0.0004908345 -0.0036002607
-0.0040615653 0.020625774 -0.00038476422 0.0010218846 0.02705691 0.0075261598 -0.0060865018 0.0004611076
0.0028245267 0.0034445943 -0.0006996573 0.0010239972 -0.009065579 -0.0058670877 0.0076402593 -0.00035057415
0.0068546715 0.003659333 0.009690256 -0.009262491 0.006209315 0.00091023685 0.0005627619 0.03502146
0.003585706 0.00953304 -0.0018735438 0.0049128854 0.0035547556 -3.9235383e-06 0.004359716 -0.0006462496
-0.008852787 -0.0037481661 -0.0005257861 -0.00080894114 0.0031460945 -0.007569126 -0.00039375393 0.0003180502
0.007263617 -0.0001819241 0.0002947923 -0.0023684837 0.00047055417 -0.0051645013 -0.0013165148 0.006010243
-0.0052273856 0.013943892 -0.00199384 0.00017773657 0.0041494453 0.0026635255 -0.017331388 6.803669e-05
0.00049560086 0.0016380273 -0.0054755397 -0.00022280708 -0.00062339165 0.027954664 -0.0006462154 -0.013041688
0.002076272 0.002982582 0.0023631887 0.0011936072 0.009540857 -0.0045162416 0.0029517105 -0.0005667215
-0.0038606012 -0.0018890465 0.0005328042 0.00043496012 -0.01983856 -0.009682351 0.004254226 0.0008930992
-0.007072005 -0.0022840197 0.0077949385 -0.004260687 0.00048486257 0.0004608577 -0.007945089 0.025511876
-0.0012874249 -0.0034059691 -0.004790496 -0.0039967685 -0.0024952956 -0.0011264271 -0.0034573711 0.00077819545
-0.025114765 -0.006163785 0.00057309814 -0.0018100699 -0.001565255 -0.0053066923 -0.00014320658 -0.000149823
-0.006216511 0.0009549461 -0.00033345888 -0.0076684137 -0.00028363045 0.0028858134 -0.009164743 -0.0039310646
0.0013624282 0.00622992 0.0019817555 -0.00044665922 -0.0019452538 -0.003009144 -0.00042143452 -0.0002672622
-0.00054122467 -0.0011283513 0.0056742053 -0.00027659565 0.0007044586 0.013099499 0.0007102688 -0.0012610211
-0.002223341 0.011416272 -0.0012227022 -0.0005648816 0.01021358 0.004517228 -0.0023731547 0.00027925614
0.0024902585 0.0016682765 -0.00040772636 -0.00017635523 -0.00046923995 9.8675446e-05 0.0018238289 -0.0009960608
0.005103656 0.002080408 0.005706089 -0.0040283855 0.003630925 0.00018181314 0.0009378064 0.010801951
0.0013826584 0.003846637 0.00096153974 0.0026493336 0.004410823 0.00029679536 0.0028372065 -0.00068137044
-0.00060935615 0.0010375 -0.0010224374 0.00085552724 0.0012595474 -3.389307e-05 -0.0006355003 -8.145405e-05
0.0044627767 -0.00026436173 0.00014239851 0.0010409664 0.00073148106 -0.003174196 0.00203922 0.003817446
-0.029048348 0.02383796 0.0061677466 -0.0014314748 0.01348596 -0.00449759 -0.017486965 -0.0011806149
0.00060135784 -0.00419541 0.008749212 0.00046548148 -0.0064459024 0.04780074 0.0009293855 -0.038286988
-0.0034682679 0.036439918 -0.0029499617 -0.0034702606 0.0445469 0.0066973735 -0.0023339435 0.0012130506
0.003670071 0.0034383833 -0.0010265727 -0.00089929736 -0.0376593 -0.034536332 0.009873401 -0.0030039223
0.00890902 0.0068426547 0.03432299 -0.0058831563 0.016702086 0.0013784945 -0.009206322 0.02115644
0.020596707 0.009776055 -0.007957732 0.0065680523 0.0043258662 0.0018638698 0.0041708206 -0.0031589675
-0.014752088 -0.028350988 -0.0013518106 -0.012346209 0.0026228381 -0.019089874 -0.00044928264 0.00083478354
0.0071866084 0.00068276346 0.00035239547 -0.022396442 0.00079878006 -0.004575307 -0.021944217 0.011086855

encoder.rgcn_layers.0.bias f4 [64]
00000000: 54fb 72bd dc90 773d dd4e 713d 8815 71bd
00000010: c42d 713d 82b7 d73c bbfc 73bd 8f8d 6cbd
00000020: e453 70bd 5067 6b3d 48f8 823d 7b50 71bd
00000030: 7daa 71bd 89c5 763d 9912 49bd 2a5f 74bd
00000040: ff94 543d 24ad 773d d99e 72bd d9b3 71bd
00000050: 4a2a 753d b187 8d3d cd39 6c3d beb9 5f3d
00000060: efcd 713d 9e13 6e3d de86 5bbd c592 70bd
00000070: f730 74bd d33f 74bd ed3e 743d 4b27 633d
00000080: 6f0b 7c3d e5dc 723d 4953 773d 7562 74bd
00000090: 2a2d 773d 5ea7 6dbd 671b 73bd 3dbb 773d
000000a0: d3db 753d fd0b 783d f842 73bd e3f8 743d
000000b0: b36e 283d d5d1 6ebd 8231 783d a900 653d
000000c0: e21d 74bd 18b8 73bd 9854 643d b198 73bd
000000d0: 64ad 6f3d ee25 74bd a2f1 6dbd 6449 70bd
000000e0: 2b49 803d 14e3 6ebd f70e 16bd 4654 73bd
000000f0: cd1f 64bd 6969 4a3d 57b7 72bd e1f0 753d
-0.059321716 0.060440883 0.0589131 -0.058858424 0.058881536 0.02633262 -0.059567194 -0.05775219
-0.058673754 0.057471573 0.06395012 -0.058914643 -0.05900048 0.060246978 -0.04909 -0.059661068
0.051899906 0.060467854 -0.05923352 -0.059009407 0.059854783 0.06910647 0.05767231 0.054620497
0.059034284 0.058124177 -0.053595416 -0.05873372 -0.05961701 -0.05963118 0.059630323 0.055457395
0.06153434 0.059292693 0.06038216 -0.05966421 0.060345806 -0.058020942 -0.059352305 0.0604813
0.060024094 0.060558308 -0.05939004 0.05980767 0.041121196 -0.05830558 0.06059409 0.055908833
-0.05959881 -0.059501737 0.055744737 -0.05947179 0.058514968 -0.059606485 -0.058091767 -0.05866374
0.06263956 -0.058322027 -0.036635365 -0.05940654 -0.05569439 0.049416933 -0.059256878 0.060044173

encoder.rgcn_layers.1.weights f4 [6, 64, 64]
00000000: 577f b43d 7a4f bb3b a57e 613d 0508 bdbc
00000010: bdd5 873d 1849 b0bd 44c2 4cbd 3fe8 903d
00000020: b4b6 f13c 7878 3dbc d381 0d3d 3e2e 2fbd
00000030: 47da e33c 0d25 603d 9827 01bd 4d76 2d3d
00000040: 5471 213d dde3 853d 9b90 ab3c f483 a9bc
00000050: d7c1 843c 13dc 193c 947e 243a 0538 4fbc
00000060: 9884 583a f9d8 8abc c837 44bd 53a4 3abc
00000070: 4143 223d 03df 40bc 6ab0 9fbd bc48 253d
00000080: 2de1 023a 246e 603c 74a1 f9bb 8a5d d23c
00000090: e4b7 883d 32b3 5d3d 6bfe 19bd 2907 93bd
000000a0: cfc9 323d 70b4 343c 515d 033d 8e8a a13d
000000b0: a52d ddbc dcaa 9d3d 3e93 343d f6cd 873d
000000c0: 23f7 15bc f2e0 3c3d 6a03 dbbc 9048 e03c
000000d0: 1ac8 41bd e43d 32bc 91f3 a43d b31e 86bc
000000e0: 785f 9fbd 3489 b63d 7300 49bd ff02 35bd
000000f0: c672 a83d 4839 6abd 5b15 553c a85c f8bc
00000100: a464 0a3d 322d 8b3c 7b24 9a3d 55ad b5bc
00000110: 6143 8b3d 1944 21bd e606 22bd 3307 2f3c
00000120: b32a 8c3d 7120 66bb c41e 3c3d 00f8 4fbc
00000130: 122f ad3d 30d4 ab3c f110 89bc 847b 173d
00000140: f688 3e3d 0520 4d3d 2a31 283d 75f9 45bd
00000150: 1c11 883c 192e 383c 6e7d 403a 06c7 8abd
00000160: 7cb4 4839 88bc 27bd 2516 cfbd 11f5 bcbd
00000170: 28d9 a63c 1a63 80bd 5ee9 97bd 1989 403d
00000180: b53e ea38 5698 af3c 994e 63bb 35ea 5f3d
00000190: 31f4 183d 3b23 923c a2a6 b1bd 9429 4bbd
000001a0: be2e fb3c 2388 d93b 5758 553b 7315 a03c
000001b0: 6604 9fbd 3d0c 9c3d c6ac a63d c978 b63d
000001c0: bf3c 63bd 8542 583d e5b3 05bd bc48 9c3c
000001d0: c1a8 bebd e9a2 2fbd 2ecd 793d 4b87 eebc
000001e0: 355a 39bd 2db6 103d fed8 37bd abf9 b7bd
000001f0: dd67 c43d 9203 82bd bd73 213d afda e5bb
00000200: 933c 353d 2b63 f83b 45b8 2b3d 2459 a9ba
00000210: d751 9e3c c5f4 d6bb a219 483a 78e7 f13c
00000220: a1dd 0a3d bca3 54ba f049 fa3c 263f 06bb
00000230: 1aa7 223c cd18 263c c493 8239 65ef 3e3c
00000240: 6aa3 5f3d eadb 8b3c 75d8 1c3c 7d17 5bbd
00000250: 72c5 393c 88c6 eb3b f9a4 1a3a 4a83 b2bb
00000260: 3833 1839 d9b7 17ba af8e 4fbd a26e a4bc
00000270: 85a5 cfba d06b 30bb a8c2 87bc 7066 f03c
00000280: 20ad cc39 16d1 6b3c e625 0139 14f6 883c
00000290: ab68 d93b b878 6d3c 13d2 a5bc 23dd d1bb
000002a0: 0c46 3f3c d0ad c63b 8742 f7bb d178 983c
000002b0: 537c 37bb 8943 353c a08b b63c 023b e43c
000002c0: ad19 72bc 1113 163c a9f7 92b9 5013 feba
000002d0: 272d 41bc e149 cbbc ab4a 723c 050d 833b
000002e0: 4f89 f0bb b0bf 243d 5fd5 30bd 4662 debc
000002f0: 5729 cb3c bc58 9fba 1a98 4c3c d12a d538
00000300: ed1d 533c 2b85 59ba 7404 cb3c 0278 3e39
00000310: 74f6 1e3c eae5 48bc 2d3e b039 76f8 123d
00000320: 49ad 663c 56bf 67b9 bf37 353c db5e fbbb
00000330: d71a 14ba f851 c7ba fb9f 14ba 1d7b d63a
00000340: 7772 443c e322 69bb be5d ddba 98d0 f8bb
00000350: 1e87 f0ba d423 94b8 0f0b c938 85e9 d2bb
00000360: 9ea6 82b9 0c64 5b3a f614 1bbd e3d5 97bc
00000370: e0db 22ba 324f e3bb 7032 9ebc 663f 3e3c
00000380: af35 0a3a 6db6 9bba 34f7 e837 9973 2cbb
00000390: 4083 ed3b a80f 8e39 7548 d9bc 0277 abbb
000003a0: 792c 26bb 8593 09bb 576d 8a39 8539 32bb
000003b0: eb36 00bb 8385 97b9 aad5 cfb9 07ea 453c
000003c0: 2c36 0cbc f3c0 13bb 0498 b739 b80f 8db9
000003d0: 8106 3bbc 5e05 52bc 5299 a439 d498 98ba
000003e0: 26cc b1bc fad8 9f3b 32fb 42bd ad5e 35bd
000003f0: 9035 da3c c9a3 853a 270f 06bb 673b 183a
0.08813351 0.0057162615 0.05505242 -0.023075113 0.06632564 -0.086076915 -0.049989954 0.070755474
0.029506065 -0.0115643665 0.03454764 -0.04276871 0.027814044 0.054722834 -0.0315319 0.04234915
0.03941472 0.06537602 0.020942977 -0.020692803 0.016205711 0.009390849 0.0006274965 -0.012647633
0.0008259504 -0.016949164 -0.04790476 -0.011391717 0.03961492 -0.01177192 -0.0779732 0.040352568
0.000499266 0.013698135 -0.0076181237 0.025679369 0.06675699 0.054125972 -0.037596148 -0.071791
0.04364949 0.011029348 0.032071415 0.07887755 -0.026999304 0.076986045 0.044085734 0.06631081
-0.00915316 0.046112962 -0.026735026 0.02737835 -0.047309972 -0.010879014 0.08054269 -0.01637206
-0.07781881 0.08912888 -0.049072694 -0.04419231 0.08225016 -0.057183534 0.01300558 -0.03031762
0.033787385 0.016989324 0.07526489 -0.022177378 0.06799961 -0.039371584 -0.03955736 0.010682869
0.06844082 -0.0035114551 0.045927778 -0.012693405 0.084562436 0.020975202 -0.016731711 0.036983028
0.046517335 0.050079364 0.04106251 -0.048333604 0.01660972 0.011241459 0.0007342909 -0.06776242
0.00019140722 -0.04095128 -0.101116456 -0.0922643 0.02036722 -0.06268902 -0.07417558 0.047005747
0.000111696696 0.021434944 -0.00346843 0.054666717 0.037342254 0.017839065 -0.08674361 -0.0496002
0.030661937 0.006638543 0.0032553875 0.019541478 -0.07764511 0.07619522 0.08138423 0.08909757
-0.055477854 0.052797813 -0.032642264 0.019077651 -0.09309531 -0.042879973 0.06098669 -0.029117247
-0.045252044 0.035329986 -0.044884674 -0.08983167 0.09590123 -0.06348337 0.039417017 -0.0070145945
0.04424722 0.007580181 0.04192378 -0.0012920243 0.019326134 -0.0065599405 0.0007633214 0.029529318
0.033902768 -0.00081115565 0.030552834 -0.0020484417 0.009927535 0.010137749 0.00024905626 0.011653756
0.054599203 0.017072637 0.009573092 -0.053489197 0.011338579 0.0071952976 0.00058992166 -0.00544778
0.0001451493 -0.00057875883 -0.050673183 -0.020072285 -0.0015842175 -0.002691973 -0.016572312 0.029345721
0.000390389 0.014393112 0.00012316517 0.016718902 0.006634792 0.014494114 -0.020241773 -0.0064045354
0.011674415 0.0060632005 -0.0075457725 0.018612297 -0.0027997687 0.011063465 0.022283375 0.027860168
-0.014776629 0.009159819 -0.0002803181 -0.0019384418 -0.01179055 -0.024815502 0.01478831 0.003999355
-0.007340587 0.04022187 -0.043172237 -0.02714647 0.024799986 -0.0012157182 0.012487436 0.00010164607
0.012885553 -0.00082977366 0.024782397 0.00018164518 0.009702314 -0.012261847 0.0003361566 0.035881482
0.0140794 -0.00022101155 0.011060654 -0.0076712198 -0.00056497514 -0.0015206924 -0.0005669591 0.0016363595
0.011990181 -0.0035573773 -0.0016888899 -0.0075932257 -0.0018350815 -7.0638634e-05 9.586487e-05 -0.006436529
-0.00024919672 0.0008369095 -0.037861787 -0.018534606 -0.00062125735 -0.006936931 -0.01931116 0.011611795
0.00052722817 -0.0011879929 2.7771668e-05 -0.0026314019 0.0072483122 0.00027096015 -0.026523808 -0.0052326927
-0.0025356098 -0.002099247 0.00026402876 -0.002719493 -0.0019563984 -0.00028900438 -0.0003964131 0.012079722
-0.008557837 -0.0022545427 0.0003501774 -0.00026905327 -0.011415125 -0.012818662 0.0003139475 -0.0011642226
-0.02170379 0.0048781605 -0.04760284 -0.044279743 0.026636869 0.0010195907 -0.002045581 0.00058071915

encoder.rgcn_layers.1.bias f4 [64]
00000000: 9e42 773d 769b 743d 19d3 763d c3b1 72bd
00000010: 3405 763d 3ce5 74bd 3840 75bd 9444 763d
00000020: f030 763d e635 74bd bb34 763d 27a8 75bd
00000030: 07ff 763d 7784 763d a849 6ebd c04c 763d
00000040: 0ac3 753d 6847 743d 8666 693d 0b93 75bd
00000050: ead6 773d aa2f 6b3d faaa 1ebd 6a47 75bd
00000060: 9dbd 62bd e1b7 75bd 6add 75bd b5a9 75bd
00000070: eef7 733d 3e9a 74bd 23b5 75bd 2b75 763d
00000080: 44c4 6cbd f42a 7a3d 3d73 71bd 3ec0 793d
00000090: f8f1 723d f0b1 743d 818f 75bd f1fb 74bd
000000a0: 970d 793d 4c43 173d 4bae 723d cacf 783d
000000b0: c5b1 75bd 1f8f 743d 7bb0 783d 37d4 763d
000000c0: ea0b 75bd 0e86 743d 587e 75bd 5fc6 6f3d
000000d0: be57 75bd de56 75bd 0bc8 763d 041d 63bd
000000e0: a7c8 75bd 1f2c 773d a6bd 75bd 8a9a 75bd
000000f0: bf98 763d 24f8 74bd 4af3 713d f679 71bd
0.060366265 0.05971857 0.060259912 -0.059251558 0.060063556 -0.059788927 -0.059875697 0.060123995
0.060105264 -0.059621714 0.06010888 -0.059974816 0.060301807 0.060184922 -0.058175713 0.06013179
0.060000457 0.05963841 0.05698254 -0.059954684 0.060507692 0.057418503 -0.038737275 -0.05988256
-0.05535661 -0.059989814 -0.06002561 -0.0599763 0.059562616 -0.05971741 -0.0599872 0.060170334
-0.05780436 0.06107612 -0.05894779 0.060974352 0.05931279 0.059740007 -0.05995131 -0.059810583
0.060803976 0.036929414 0.05924825 0.060745038 -0.059983987 0.059706803 0.06071518 0.060260978
-0.059825815 0.059698157 -0.059934944 0.05853879 -0.05989813 -0.059897296 0.06024937 -0.055447593
-0.06000581 0.06034481 -0.059995316 -0.059961833 0.060204264 -0.059806958 0.05906991 -0.0589542

decoder.rgcn_layers.0.weights f4 [6, 64, 64]
00000000: a569 b3b8 c8d5 a23b 48f5 1139 5c87 123b
00000010: 643c 52bb f099 8b3b 24f6 a1ba 52c6 1a3c
00000020: ae8f b8ba ab18 783b 1a12 abba 7b10 013b
00000030: 7858 fa3b d62b 303d 1691 5ebc 50a5 13bc
00000040: ff40 98bc f1a3 0fbd afca 3dbc afdb 38bc
00000050: 5707 acbc 8a0b 4cbd 79f6 78bc 3e59 2abc
00000060: 988c 25bd 168c 0fbd 083a 57bd 8b67 d9bc
00000070: c964 0cbd 9eea 0bbd 32e2 59bc 5870 24bd
00000080: a8b5 a1bb f346 56bc a38e 53bd 8df3 44bd
00000090: 6aff 1cbc e676 4bbc 775c 87bd f885 7dbd
000000a0: cad8 1bbd d0ba 86bd 1c62 c2bc 132e 61bd
000000b0: 16b1 debc 2fe5 65bc 0d4a 70bd 60ab d1bb
000000c0: 431d 11bd 9262 1fbc 6b6c c2bd 769c e7bc
000000d0: 8ede f2bc 6c80 7abc b0e2 a0bc cf5e 85bc
000000e0: 9ea4 2ebd 28a6 2ebd a5a5 25bd b1a5 20bc
000000f0: e29b a5bc 6d8a 6dbd 21ee 84bc c03a e3bc
00000100: 0c15 993c 60d3 2f3c 243a 2c3d e125 3a3b
00000110: 39bf ac3b b3bb ea3b a135 65bc cd8e aa3c
00000120: ee20 8bbc ba86 9b3b bf75 7cbc ab58 973a
00000130: a557 4b3d 4f93 fb3c 7c1a d3bb aaf8 b1bc
00000140: 8ee4 28bd bf3b cdbb 9eda 3fbc d7a6 2bbc
00000150: 9460 c6bc 4feb cbbc 434c 51bd a460 4d3b
00000160: a757 abbd b71b b2bd 1126 81bd e88f 2fbd
00000170: f2d7 5dbd 49be 8bbc 6e58 97bd 40f5 5dbd
00000180: d075 5fbd b6ce 8ebd 32ed 23bd aecb 2cbd
00000190: ccb4 6ebd 9701 1bbd 7978 c6bc ba86 93bd
000001a0: 23c1 6cbd 7e01 80bd ca30 b1bd 7d58 08bd
000001b0: 6911 46bd ef95 10bd 6792 85bd 7007 50bc
000001c0: dcb4 02bd 588d fdbc 57e8 9cbd eb23 84bc
000001d0: 3e01 03bb a1bf e8bc 0ca8 74bd 525a eebc
000001e0: fcf3 97bd 630f 8dbd 63ed 44bd cef1 69bc
000001f0: b81c 73bd 64d3 13bd 603e adbd 423e 47bd
00000200: ce16 213d a372 97bc 6bff af3c 70ca 6dbb
00000210: f530 0bbd 3953 debc 0bda a6bc d007 a7bc
00000220: adf6 89bc 9964 39bb 167c b4bc 28d9 01bd
00000230: 4d0f 9a3d 29e3 493c 4342 f8bc c807 adbc
00000240: 9a9f 7dbc 8adc d4bc 4ad5 973c fa23 01bd
00000250: 16bc 18bd 64a9 a9bc 39fa 40bd 9fdd 1fbd
00000260: 9d5e 2dbc cba8 83bd 99ed 67bc 922b 61bc
00000270: a22c 01bd e685 97bd b89d a3bd b661 a2bd
00000280: b94c 97bd d8ca 2cbc b374 40bd 286e 82bd
00000290: c4f9 88bd 4587 97bd 2542 7dbd 2e56 95bd
000002a0: daf8 1bbd 08c0 febc 303b d3bc 8519 9ebc
000002b0: 3857 0dbd 9ef4 94bd ab1b 31bd e05b 9ebc
000002c0: ed27 d2bc a964 86bc 216d 8ebd d446 d0bc
000002d0: 83cd 2bbd 0349 78bd f38d f2bc 579b 8f3c
000002e0: b0b9 82bd db1f 6ebd 6c34 cebc adf7 7a3c
000002f0: f9a7 d7bc 57a7 81bd 7c78 a9bb 8511 36bd
00000300: bdee 8bbc e0ba 9b3b 0a0a 2fbd 807d a2bb
00000310: 0de6 0d3c 9838 253b cf6a 773c 318e 95bb
00000320: 0fd2 713c 25d4 26bc 7065 cf3c 879d 9f3c
00000330: 0a0d 5ebd 90c3 33bd cbdf e03c 9b0b 363d
00000340: 1ba5 263d e825 293d c252 27bc 981f 973c
00000350: cbe8 543d 9b26 993d bb4a 653d a972 143d
00000360: 01d0 353d 1331 123d 62e4 aa3c d1e6 953d
00000370: 5c8a 843d 145f 863d d14d b53d 2d28 8d3d
00000380: 2679 8e3d 4fed f83c 78d0 293d 6fb7 b43c
00000390: a309 5f3d d273 8d3d 1f3b a13d dfa4 033d
000003a0: ab2d a93d 151e 3d3d 13db 923c 1459 ac3d
000003b0: f75b b03d 8031 4a3d 3c8c 303d 83f7 e13c
000003c0: b5c8 973d 27bf 3f3d b587 723d b14a 333d
000003d0: e3c4 e13c 851f 623d 68e2 b03d c282 c73b
000003e0: 3192 903d 522a 023d 7fb0 b73c 485e 233c
000003f0: 865f a23d 8945 3a3d 0e26 303d 8ed3 653d
-8.555063e-05 0.0049693324 0.00013919652 0.0022358513 -0.0032079453 0.004260294 -0.0012356681 0.009446697
-0.0014080906 0.00378565 -0.0013051659 0.001969366 0.007639941 0.043010555 -0.013584396 -0.009011582
-0.01858568 -0.035068456 -0.011583968 -0.011282845 -0.020999594 -0.049815692 -0.015195482 -0.010397254
-0.040417284 -0.035045706 -0.052545577 -0.026538631 -0.034275804 -0.034159295 -0.013298558 -0.0401462
-0.004934985 -0.013078439 -0.0516497 -0.04808383 -0.00958238 -0.012418484 -0.06609433 -0.06189534
-0.038048543 -0.065786004 -0.023728423 -0.05497558 -0.02718405 -0.014031692 -0.05866437 -0.0063986033
-0.035428297 -0.009728091 -0.09493335 -0.028272849 -0.029647138 -0.015289407 -0.019639343 -0.01628056
-0.04263746 -0.042638928 -0.040441174 -0.009805129 -0.020215932 -0.05799334 -0.01622683 -0.027737975
0.018686794 0.010731548 0.042047635 0.0028403925 0.005271819 0.007163489 -0.013989837 0.020820046
-0.016983476 0.0047462853 -0.015408932 0.0011546811 0.04964413 0.03070989 -0.006442366 -0.021725018
-0.04123359 -0.006263226 -0.011709837 -0.010476789 -0.024215974 -0.024892477 -0.05109812 0.003133812
-0.08366328 -0.086966924 -0.06306089 -0.04286185 -0.05416102 -0.017058508 -0.073899135 -0.054188967
-0.054555714 -0.06973021 -0.04002113 -0.04218643 -0.05827789 -0.037843313 -0.024227368 -0.072034314
-0.057801377 -0.062502846 -0.08651884 -0.033287514 -0.048356447 -0.035299238 -0.06522065 -0.012697086
-0.031910762 -0.030951187 -0.07661503 -0.016130408 -0.0019989754 -0.028411688 -0.059730574 -0.029095802
-0.07419583 -0.068877004 -0.048077952 -0.014278842 -0.05935356 -0.03609027 -0.08459163 -0.048643358
0.03932839 -0.01848728 0.021484097 -0.0036283992 -0.033982236 -0.027139293 -0.020367643 -0.020389467
-0.016841257 -0.002828872 -0.022031825 -0.031701237 0.0752245 0.012322226 -0.030305034 -0.021121874
-0.0154799465 -0.025984067 0.018534321 -0.03152845 -0.037288748 -0.020710655 -0.04711363 -0.039029714
-0.01058164 -0.06428679 -0.014155769 -0.013743298 -0.031536706 -0.07398586 -0.07989067 -0.07928793
-0.073876806 -0.010546409 -0.046986293 -0.06368667 -0.06688264 -0.073988475 -0.06183066 -0.07291828
-0.03807912 -0.031097427 -0.025785059 -0.019299278 -0.034507006 -0.072732195 -0.043239277 -0.019330919
-0.025653804 -0.01640542 -0.069544084 -0.025424398 -0.041944038 -0.060616504 -0.029608702 0.017530126
-0.06383073 -0.05813585 -0.025171481 0.01531784 -0.026325213 -0.06330746 -0.0051718336 -0.0444503
-0.017081613 0.004752502 -0.042734183 -0.0049588084 0.008660805 0.0025210734 0.015101149 -0.0045640697
0.0147595545 -0.010182415 0.025316924 0.019484295 -0.054211654 -0.043887675 0.027450463 0.04444466
0.0406848 0.041295916 -0.010212602 0.018447682 0.05197982 0.074780665 0.05597947 0.03624216
0.04438782 0.035691332 0.020860855 0.07319415 0.064717025 0.065611035 0.08852733 0.068924285
0.06956701 0.030386595 0.041458577 0.022060124 0.05445255 0.069068566 0.078726046 0.032139655
0.082606636 0.046171267 0.017926728 0.08415428 0.08611291 0.049363613 0.043102488 0.027583843
0.07411329 0.046813156 0.05921145 0.043772403 0.027559703 0.05520584 0.086369336 0.0060885856
0.07059134 0.03177864 0.022423027 0.009971209 0.07928376 0.04547647 0.04300504 0.056109957

decoder.rgcn_layers.0.bias f4 [64]
00000000: 4df9 753d 4ff9 753d 4ef9 753d 4ef9 753d
00000010: 4df9 753d 4bf9 753d 4ef9 753d 4ff9 753d
00000020: 4ef9 753d 4ef9 753d 4ef9 753d 4ef9 753d
00000030: 4ff9 753d 4ef9 753d 4ff9 753d 4cf9 753d
00000040: 4ff9 753d 4ff9 753d 4ef9 753d 4cf9 753d
00000050: 4cf9 753d 4ef9 753d 4ef9 753d 4ef9 753d
00000060: 50f9 753d 4cf9 753d 4ff9 753d 4df9 753d
00000070: 4df9 753d 4ff9 753d 49f9 753d 4ef9 753d
00000080: 49f9 753d 4df9 753d 49f9 753d 4df9 753d
00000090: 4ff9 753d 4ef9 753d 4ef9 753d 4ef9 753d
000000a0: 4ff9 753d 4df9 753d 4cf9 753d 4ff9 753d
000000b0: 4df9 753d 4ef9 753d 4bf9 753d 4ef9 753d
000000c0: 4ff9 753d 50f9 753d 4cf9 753d 4cf9 753d
000000d0: 4ef9 753d 4bf9 753d 4ef9 753d 4df9 753d
000000e0: 4af9 753d 4ff9 753d 4ef9 753d 50f9 753d
000000f0: 4df9 753d 4cf9 753d 50f9 753d 4cf9 753d
0.060052205 0.060052212 0.06005221 0.06005221 0.060052205 0.060052197 0.06005221 0.060052212
0.06005221 0.06005221 0.06005221 0.06005221 0.060052212 0.06005221 0.060052212 0.0600522
0.060052212 0.060052212 0.06005221 0.0600522 0.0600522 0.06005221 0.06005221 0.06005221
0.060052216 0.0600522 0.060052212 0.060052205 0.060052205 0.060052212 0.06005219 0.06005221
0.06005219 0.060052205 0.06005219 0.060052205 0.060052212 0.06005221 0.06005221 0.06005221
0.060052212 0.060052205 0.0600522 0.060052212 0.060052205 0.06005221 0.060052197 0.06005221
0.060052212 0.060052216 0.0600522 0.0600522 0.06005221 0.060052197 0.06005221 0.060052205
0.060052194 0.060052212 0.06005221 0.060052216 0.060052205 0.0600522 0.060052216 0.0600522

encoder_to_decoder.weight f4 [64, 64]
00000000: c83f 51bb dee0 f3bb 05ba 4dbc 8cfd 4d3a
00000010: 30f8 59bc 486c 743a ba3f 703a f5d3 68bc
00000020: ba68 74bc 9b24 8139 d8f9 57bd f6f6 ba3a
00000030: 6b36 0abc 2720 0ebc 3334 a6bb a439 24bc
00000040: 4c80 0cbc 6d93 49bc f8f3 0bbc 6bd3 27bc
00000050: c683 e6bb 6bca f7bb 0d5a 013b ae40 7abb
00000060: 2b0c 3739 9e22 bc39 1e86 193b 70e4 c63a
00000070: a328 11bc 37cf bd3a b310 593a f771 d5bb
00000080: 12ea 6c3a fa54 1ebc 0847 81bc dec0 4fbc
00000090: e99a 08bc 22d2 53bc 382f 103b 49f8 443a
000000a0: 16c6 17bc 3e62 acbb ba78 8bbb 324f 3ebc
000000b0: fd79 2b3b a32d 1ebc 5e5b 33bc dff3 96bc
000000c0: 3b21 4dba 0a44 ebbb 0a32 363b e187 acbb
000000d0: bda0 03bd 2f8e abbc 4395 43bc 2428 78bb
000000e0: 3677 cb3a 1f12 72bc fe7b b93a 6c67 cabb
000000f0: 7285 52bc b0d8 803a c9a6 07bc 3946 c53a
00000100: 0d03 14bd 0cb5 7bbc 0203 c2bc 95c8 3d3b
00000110: 9ea3 d7bc 37c0 1e3b 3831 1f3b a7e7 85bd
00000120: 4557 d4bc 5210 843a 2fa1 b2bc 04e8 ee3a
00000130: 9783 9abc e75e 89bc 9e85 333b a843 bcbc
00000140: df6e 73bc 92ae a3bc deeb 5dbc f1b2 fdbc
00000150: 6fba 73bc f6e4 5cbc 050b 623a fa8a 643b
00000160: 4112 993a 0e73 6b3b b041 393b 288e 613b
00000170: 8ca3 82bc b9e6 86bb 0823 103b c62d d9bc
00000180: 40be 9f3a 391e 69bc ea72 0d3b 378a a4bc
00000190: f75f 83bc 6ed5 8cbc f63f 47ba 233e 9c3a
000001a0: bcf0 93bc b1c9 18bc 7751 b1bb 9c97 a4bc
000001b0: 0e0b 183b ac95 93bc 5246 c2bc d20b d8bc
000001c0: 582d 223b 3258 78bc 8249 f43a 360f 1bbc
000001d0: 9385 eb3a f890 6f3b 3972 7fbc 840b a7bc
000001e0: c009 2a3b 3c3a c6bc 84bf 6f3b 3cf9 85bc
000001f0: 7e94 cabc 76bc 233b abcc 8abc f4e8 fc3a
00000200: 2f75 c1bc 2882 6dbc 7cbd a7bc 17f7 ef3a
00000210: 412c f13c 51d3 b7ba fb12 8a3a 9fce 18bd
00000220: 432f fa3c c5a3 a939 fb4c 043c 6421 7a3a
00000230: 5306 febb 802e e2bb ccf6 8238 8320 203d
00000240: e510 913d 1838 00bc e6ec 8dbb 7fda 29bd
00000250: 1cd4 d43c 0908 4cbc bada a03a a336 803c
00000260: d5af 9fb9 226c 2f3a afdb 483d 193a 053a
00000270: 0466 3eba 6aa4 443d 72cf 193b a681 963c
00000280: 8115 2b3a f314 cebb 0b05 a33a d065 12bc
00000290: aadc dbbb 68a2 563b 17cb bd3c 84e1 4239
000002a0: f284 d1bb 61de 46bb 1f53 233c 3af1 503d
000002b0: a2bd 9639 1977 13bc 96b8 c13d bfb5 973a
000002c0: a7d8 003d 83fe 80bb 40ee 8d3a 08d8 92bb
000002d0: 0e7a 553d 7252 a53d 048e 3dbc 30c9 e33b
000002e0: 272f bd3a 2c2f f83b b135 fc3c 8206 943d
000002f0: 5052 59bc 806d f539 2831 313c f902 54ba
00000300: c211 623d cf22 0b3c 6982 413c 8e25 fdb9
00000310: 94e5 593c 7dcb abba b341 ebba 3bbe c33d
00000320: 536c 303c 139c d3ba b563 383c 3fb0 f3ba
00000330: a783 0d3c 19b8 233c 577e a2ba 2d08 8b3d
00000340: 0d95 0f3d d997 343c fcb1 113c def9 1f3c
00000350: 5baf a73b a7db 063c 2841 c5ba b008 f53c
00000360: dcd4 0eba cb40 913a aed1 613c 661f d6ba
00000370: 620c abba 2d20 2a3d 9a4e b83b ea42 513c
00000380: 2230 17ba 0df9 cf3b dd77 1bbb 528e 4e3c
00000390: aecb 1e3c c063 213c c24a 413d d8f7 ebba
000003a0: 85f4 df3b 8be1 323b 7283 8ebc e371 2a3c
000003b0: c2d0 78ba 1cd2 483c 8f48 a73d b41f 5b3c
000003c0: 4a79 c1bb 2984 183c 1abc f8ba 4dcf cc3b
000003d0: a525 663c 1f37 86bc 6e59 3d3c 93f7 a23d
000003e0: ad94 e2ba 949d 343d 1adf dc3b dad7 2f3d
000003f0: 529a 4b3c 3a84 e4ba dcde 093c dff9 50ba
-0.0031928886 -0.0074425777 -0.012556558 0.0007857911 -0.013303801 0.00093239965 0.00091647694 -0.014210691
-0.014917547 0.0002463207 -0.052728504 0.0014264274 -0.008435826 -0.008674658 -0.0050721406 -0.010023508
-0.00857551 -0.012303215 -0.008542053 -0.010243277 -0.0070347516 -0.007561972 0.0019737512 -0.0038185525
0.00017456773 0.00035883946 0.0023425887 0.0015174281 -0.008859786 0.001448131 0.00082803814 -0.00651383
0.0009037565 -0.009663815 -0.01578094 -0.01268026 -0.008337715 -0.012928518 0.00220008 0.0007513804
-0.009263536 -0.005260735 -0.004256335 -0.011615561 0.002616524 -0.009654435 -0.010947077 -0.018426834
-0.0007825081 -0.0071797417 0.0027800822 -0.0052652215 -0.032135714 -0.020941822 -0.011937442 -0.0037865723
0.0015523199 -0.014774828 0.0014151332 -0.0061768796 -0.012849199 0.0009830203 -0.008279511 0.0015050835
-0.036135722 -0.015362989 -0.023683075 0.0028958668 -0.026323136 0.0024223456 0.0024290811 -0.06538325
-0.02592052 0.0010075665 -0.021805374 0.0018227105 -0.018861575 -0.016768886 0.0027392874 -0.02298148
-0.014857977 -0.019980703 -0.013545005 -0.030969115 -0.014875992 -0.013482323 0.0008622858 0.0034872876
0.0011678414 0.0035926732 0.0028267913 0.0034417007 -0.015947126 -0.0041168598 0.0021993537 -0.026511084
0.0012187436 -0.014228397 0.0021583387 -0.020085437 -0.01603697 -0.017191615 -0.00076007785 0.0011920374
-0.018059127 -0.009325431 -0.0054113227 -0.020091824 0.0023199948 -0.018015705 -0.023715172 -0.026372824
0.0024746265 -0.015157746 0.001863763 -0.009464076 0.0017968885 0.0036554914 -0.015591198 -0.020391233
0.0025945753 -0.02419769 0.0036582658 -0.016354196 -0.02472901 0.0024984158 -0.016943296 0.00192955
-0.023615448 -0.014496364 -0.020476095 0.0018307891 0.029440047 -0.0014024769 0.0010534221 -0.037306424
0.030540114 0.0003235621 0.008074994 0.0009541719 -0.0077522187 -0.006902516 6.2448526e-05 0.039093506
0.070833005 -0.007825874 -0.004331219 -0.04146814 0.025980048 -0.012453088 0.0012272217 0.015651053
-0.00030457848 0.0006691833 0.04903763 0.00050822046 -0.00072631263 0.04800836 0.0023469594 0.018372368
0.00065263367 -0.0062891184 0.0012437416 -0.008935407 -0.006709655 0.003275061 0.02316813 0.00018585293
-0.006394022 -0.003034495 0.009968548 0.0510113 0.00028751517 -0.009000563 0.09459035 0.001157455
0.031456616 -0.00393659 0.001082845 -0.0044813193 0.052118354 0.08072366 -0.011569504 0.0069514737
0.0014433608 0.0075739827 0.03078732 0.07227804 -0.013264254 0.00046811625 0.010814942 -0.0008087601
0.055192716 0.008492186 0.011810877 -0.000482839 0.013299365 -0.0013106909 -0.0017948657 0.09557768
0.010768014 -0.0016144536 0.011254241 -0.0018591954 0.008637345 0.009992623 -0.0012397271 0.06788669
0.035054255 0.011022531 0.008892532 0.009764163 0.0051173395 0.00823108 -0.0015049325 0.02991137
-0.00054485886 0.0011081932 0.013782902 -0.0016336262 -0.0013049955 0.04153459 0.0056246044 0.012772301
-0.0005767365 0.006346828 -0.0023722567 0.012607174 0.009692116 0.009850442 0.047190435 -0.001800294
0.006834569 0.0027295079 -0.017396662 0.010403129 -0.00094915566 0.012257125 0.08168136 0.013374258
-0.0059043514 0.009308853 -0.0018976957 0.006250298 0.014047061 -0.016383706 0.011556966 0.07957377
-0.001728674 0.04409559 0.006740463 0.04293046 0.01242693 -0.0017434426 0.00841495 -0.0007971804
